code/Notebooks/q_network_with_traffic_lights.pth (torch, 21348 bytes, 6 tensors)

fc1.weight f4 [64, 3]
000000 ef f3 d0 bd a9 90 0e bf d8 af 69 be f4 c5 98 3e
       -0.10202777 -0.55689484 -0.22820985 0.29838526
000010 08 62 16 3f 12 28 8f bf 5f 7b 37 3d 0f ed a6 be
       0.58743334 -1.1184103 0.04479539 -0.32602736
000020 44 86 c7 bd 81 e4 7b be 7c 1b a8 3d c5 1c 2d be
       -0.09742406 -0.24598886 0.08208367 -0.16905506
000030 43 a1 82 3d 6c b2 b2 be 72 ac d9 3e 58 2c c2 bd
       0.063784145 -0.3490175 0.42514378 -0.09481114
000040 a4 51 9a 3e 54 ba d4 3d e1 7e 93 be 93 de 87 3e
       0.30140412 0.10387102 -0.28807738 0.26536998
000050 4b 42 56 bd ac b6 2f be a7 8b b5 3e fb 0f b1 be
       -0.052309316 -0.17159528 0.3545811 -0.34582505
000060 2d c3 47 be 2f 54 0c be ff ca ba bd b3 06 b4 bd
       -0.19508047 -0.13703988 -0.0912075 -0.0879034
000070 01 25 d0 3e 96 94 1e 3e be 5c d4 bc 2f 5f 10 bf
       0.40653232 0.15486369 -0.02592313 -0.5639524
000080 01 9a ad be 64 22 e3 be b3 7c aa b9 24 95 48 3f
       -0.33906558 -0.44362175 -0.00032517835 0.7835257
000090 97 0a 86 be 91 00 2e 3d d6 b7 34 bd 58 88 47 bf
       -0.26179954 0.04248101 -0.044120632 -0.7794242
0000a0 60 84 a8 3e f2 0e 8b 3d 92 a3 d2 3e e2 7d b2 3e
       0.32913494 0.0678996 0.4114042 0.34861666
0000b0 82 fd 31 3d 13 3d a5 be 42 c8 c6 3e 9c c6 57 bd
       0.043454655 -0.32273158 0.3882466 -0.052679643
0000c0 43 fa f5 3e 4e ac 9f be 27 10 4c be 4e d2 47 be
       0.48042497 -0.31186146 -0.19928037 -0.19513819
0000d0 21 e3 b0 3c 30 04 1a bd 0a 42 98 be 92 a0 5b bd
       0.021592679 -0.03760165 -0.29737884 -0.05361993
0000e0 4a d2 58 3e 55 b6 58 3e 76 82 88 3c a9 51 90 3c
       0.21173969 0.21163304 0.016663771 0.017617064
0000f0 fd c8 10 bd e6 c3 67 bf b1 26 d3 3d ed db f7 bd
       -0.035347927 -0.9053329 0.10310114 -0.121024944
000100 7a 38 c2 be 8f d3 06 3f 54 dd 01 3d dc e0 3c 3f
       -0.37933713 0.5266656 0.031705216 0.7378061
000110 aa 8f 74 bf 14 0b 46 3e 97 20 c8 3e 15 af 6f bf
       -0.95531714 0.19340163 0.39087364 -0.9362653
000120 1f 3c 0c 3e d8 2f 30 bf cc c2 af 3e 61 89 27 bf
       0.1369481 -0.68823004 0.34328306 -0.65444
000130 bd 5b c4 3d 74 e2 c5 3e 00 15 f1 be c7 27 41 3e
       0.0958781 0.38649333 -0.47086334 0.1886283
000140 0d 61 82 bd 6a c6 ae be 2c 82 a9 3e 9d 04 ea 3d
       -0.06366167 -0.34135753 0.33107126 0.11426661
000150 3f 8d 28 3e 74 13 7f 3e 1a 74 84 bf d3 b0 06 bf
       0.16460131 0.24909765 -1.0347931 -0.5261356
000160 2e fb 5f 3f 82 98 32 3e 27 05 19 be 74 fc d7 3e
       0.87492645 0.1744099 -0.14943372 0.42184794
000170 5f 6b 8d be d2 12 a4 3c 7a 78 10 3f d3 f4 1d bf
       -0.2762098 0.020028505 0.5643383 -0.617017
000180 8c 5c 8f 3c 5e 93 9d bf a5 9b 6e be d1 13 83 3e
       0.017500184 -1.2310598 -0.23301561 0.25601056
000190 68 98 44 bf 81 a9 42 be bf ff 8b bf b8 30 00 bf
       -0.76795053 -0.19009973 -1.0937423 -0.5007434
0001a0 d3 84 f2 3e ca 54 c5 be ff 4c 9f 3e 96 dd 94 3f
       0.47366962 -0.3854125 0.3111343 1.1630123
0001b0 0c 88 d5 3d e4 a5 22 3e e4 f1 63 be 4a d7 81 bd
       0.104263395 0.15883595 -0.22260243 -0.06339891
0001c0 f6 8f 88 3e 79 fe 85 3e 17 dd 43 bc 96 dd 07 3e
       0.26672333 0.2617071 -0.011954567 0.13268122
0001d0 c8 ef 45 be 71 b9 62 3e 27 47 f0 3e 6b b8 d8 3e
       -0.1932975 0.22141053 0.46929285 0.423282
0001e0 8e 32 15 be 1b fe 94 be 1b 5f 30 bd 1d eb 49 3e
       -0.14570066 -0.29100117 -0.04305945 0.19718595
0001f0 d2 23 0d bf f1 65 b2 3e 31 a5 2e be 34 0b 2f bd
       -0.5513278 0.348434 -0.17055203 -0.042735294
000200 6b 67 7c bd 4c dd 84 bd b5 53 01 bf 64 54 90 3e
       -0.061622065 -0.064875215 -0.5051835 0.28189385
000210 70 ac 59 3e e3 d9 84 bc 9b 19 f8 be c3 fe 7d be
       0.21257186 -0.016217178 -0.48457035 -0.24804215
000220 96 bd dd 3d d4 ae 18 3e 7a 87 ad 3e 41 03 74 3d
       0.10827176 0.14910442 0.33892423 0.059573416
000230 1e 11 8d 3e 37 8a 16 be 27 0c 4b bd e7 ce 86 bd
       0.27552122 -0.14701162 -0.049572136 -0.06582432
000240 1b cc 77 be ab ca 21 bf c0 e3 ee 3e 2d 4c 1e be
       -0.24198954 -0.6319987 0.46658134 -0.15458746
000250 f5 43 2c be 8b 8f 9d bd 1e 91 6c 3c 68 2f f1 bd
       -0.16822799 -0.07693394 0.0144388955 -0.1177662
000260 f0 9e 61 bd 3c 6d 68 be 38 44 32 3f 01 e4 b8 3e
       -0.055083215 -0.2269792 0.69635344 0.36111453
000270 86 22 c6 be 4b f6 2e 3e 76 ac 4d bf ad bc 1a be
       -0.38698214 0.17086141 -0.8034128 -0.15111037
000280 1f 49 da bd 04 63 f7 3e d4 32 8f 3e 77 47 3c bf
       -0.10658478 0.4831773 0.27968466 -0.73546547
000290 f4 8c b8 bd 71 54 f4 3e 4a 4e 50 be 00 da 2e bf
       -0.0901126 0.47720674 -0.20342365 -0.6830139
0002a0 7e 9e 2a be 33 37 47 bd c0 d7 15 3f 96 d5 bf b9
       -0.16662022 -0.048636626 0.58532333 -0.00036589493
0002b0 fd 7f e3 3e 4c e4 fc be 84 b5 c0 be 59 4c 97 be
       0.44433585 -0.49392927 -0.37638485 -0.29550436
0002c0 4c ff 45 3f d1 16 99 be 54 f7 0f 3f f6 84 f1 3d
       0.7734268 -0.2990022 0.5623677 0.117929384
0002d0 b9 59 2f be d7 d9 63 bd db 9d 1d 3d 1e d7 92 3e
       -0.1712407 -0.05562767 0.03848062 0.28679746
0002e0 02 79 12 3f 5b 93 17 3c 22 4c 1f bf 7a d5 92 3f
       0.57215893 0.009251441 -0.62225544 1.1471398
0002f0 e7 ea c0 bd 09 dc ce be c8 2a 11 be 53 ec 29 3f
       -0.09419804 -0.40402249 -0.14176476 0.6637623

fc1.bias f4 [64]
000000 28 c1 f6 bd a3 6f 50 bf 25 43 d6 3e f7 94 57 3d
       -0.120485604 -0.81420344 0.41848102 0.0526323
000010 2a f1 85 3f d2 f8 db be b9 c9 aa 3f 76 e3 43 be
       1.0464222 -0.42963272 1.3342811 -0.19129738
000020 07 89 a2 3f 26 5d 2d bf 61 de 8a be 3b 67 39 3f
       1.2698067 -0.6772026 -0.27122787 0.7242314
000030 4b c2 9d 3f e3 93 9e 3f 3a a3 31 bf 09 70 9d 3f
       1.2324919 1.2388881 -0.6938969 1.2299815
000040 aa bb 69 3f c0 af 7c 3f ab dc b7 3f a3 f9 35 3f
       0.9130198 0.98705673 1.4364218 0.7108404
000050 61 03 8d 3f 06 25 54 bc d9 6b d6 bd f7 34 08 bf
       1.1016656 -0.01294828 -0.10469789 -0.5320582
000060 1e 7f 37 3f 7b 4d 73 3d e9 e7 0e bf f6 ae be 3f
       0.7167834 0.059400063 -0.55822617 1.4897144
000070 f2 b8 ce be 2a a2 41 3e f1 7c 8e be 3b 12 e5 bd
       -0.40375477 0.18909517 -0.27829698 -0.11185118
000080 3b f3 94 3f f5 ad 7c 3f f4 7b 1f 3f 63 84 34 be
       1.1636728 0.9870294 0.6229851 -0.17628627
000090 1c bd 15 bf a4 11 13 3f de 0e f9 be 72 21 2a bf
       -0.58491683 0.5744879 -0.48644155 -0.66457283
0000a0 30 1e 74 3f 29 c2 ab 3e df a3 78 3f d1 65 45 3f
       0.9535856 0.3354657 0.9712505 0.77108485
0000b0 9a 9c 6c 3f 57 33 85 3f 61 86 50 3f dd 10 60 3f
       0.92426455 1.0406293 0.81455046 0.8752573
0000c0 d6 f3 88 bd 33 27 88 3f 8e 85 7e 3f c8 ad 85 be
       -0.06687133 1.0636963 0.9942254 -0.26109147
0000d0 88 ab 13 bc 57 d6 96 3e 90 0f 23 3f 80 53 5c 3f
       -0.009013064 0.29460403 0.6369562 0.8606491
0000e0 c8 eb 97 3d b7 49 e8 be 19 80 ab 3e 52 8a 95 3f
       0.074180186 -0.4536874 0.33496168 1.1682837
0000f0 61 1e 77 be 21 30 69 bf 74 80 e2 3d 19 3e af be
       -0.24132682 -0.91089064 0.11059657 -0.34227064

fc2.weight f4 [64, 64]
000000 5e 11 99 bd 1a 9f 1e 3c 16 e0 04 be f7 0a d6 3b
       -0.07474016 0.009681487 -0.12976107 0.006532069
000010 46 be 04 be fa 2a d8 bd da 9e aa 3d 9d f5 9b bc
       -0.12963209 -0.10555072 0.0833108 -0.019038016
000020 7f 01 96 bd 2c 38 8a bd 18 03 cd 3d 25 f4 62 3d
       -0.07324504 -0.06748995 0.10010356 0.055408616
000030 61 f3 43 bd 19 73 4c bd 37 b5 fb bd 8e 34 17 be
       -0.047839526 -0.049914453 -0.12290423 -0.14766142
000040 c0 c4 c1 3c 1a 80 32 bd f0 00 bf bc a1 b0 14 3d
       0.023653388 -0.0435792 -0.023315877 0.03630126
000050 9c 6e b8 3b 5c 97 26 bd 9e 90 5d bd 96 fa 49 3d
       0.00562842 -0.04067169 -0.054092996 0.049311243
000060 05 13 ca bd 98 d3 fa bc 90 da 59 bd c3 2e da 3d
       -0.09866909 -0.030618474 -0.053186953 0.1065345
000070 34 7d 01 be 4c de 4a 3d a3 84 ac 3b c2 2d 8d 3b
       -0.12645417 0.049528405 0.005264835 0.0043084333
000080 f7 5f 80 3d f7 da 0a be fb c6 9c 3d 77 fd 85 bd
       0.06268304 -0.13560091 0.0765514 -0.06542485
000090 a5 0f 84 3d 1b dc df 3c 18 51 37 bd 60 0e 97 bd
       0.064482965 0.027326634 -0.04475507 -0.07375789
0000a0 b3 f9 8b 3d ab 73 b8 bd aa de 6f 3d ac 86 96 3d
       0.06834736 -0.09006437 0.05856196 0.07349905
0000b0 c0 b8 96 bc 7b 9c 2b 3d 8f 76 f7 ba f1 0d d6 bc
       -0.018398643 0.04189728 -0.0018879938 -0.026129695
0000c0 66 05 25 bc f2 86 a4 bc 04 ef a7 3d 56 dd b1 bd
       -0.010072088 -0.020083878 0.081998855 -0.086847946
0000d0 e0 32 41 3d 18 ce 97 bd 9d b4 72 3d 37 0c fb 3a
       0.04716766 -0.07412356 0.059254277 0.001915342
0000e0 b0 2e db 3d c4 be 19 bd 7e 4b 83 3d 38 1c ce bc
       0.10702264 -0.037535444 0.06410883 -0.02515994
0000f0 b8 0d 9d 3d 1f 35 43 3d b9 a1 7c 3c 50 bc 44 bc
       0.07668632 0.047658082 0.015419417 -0.012007788
000100 12 4a c8 bd f0 e6 2e 3f 66 e9 47 bc f3 96 ea bd
       -0.09779753 0.6832113 -0.012201643 -0.114545725
000110 c4 6a 8a be a8 cc b0 3d 65 f8 1b 3e 73 86 73 be
       -0.2703458 0.08632785 0.15231474 -0.23781757
000120 69 9f 96 3e f9 84 24 3d 26 32 a2 3d c2 27 5c bf
       0.29418495 0.040165875 0.07919721 -0.85998166
000130 fe 41 2b be 18 ee 33 bf a9 52 89 be e0 aa 38 3d
       -0.16724393 -0.7028518 -0.26820877 0.045084834
000140 a0 76 c0 bd 62 bb 86 3e 1d 4b 11 bf 26 30 2d bc
       -0.09397626 0.26314837 -0.5675524 -0.0105705615
000150 6f 10 1f be d1 60 60 be 23 86 d1 3d aa 63 2a 3e
       -0.15533613 -0.21911933 0.10230663 0.16639581
000160 52 e3 e9 be 6c 4b 5d bf f0 6c 39 bc c5 25 1d bc
       -0.45681244 -0.8644321 -0.011317477 -0.0095915245
000170 6b 10 da 3e 03 e5 de bf e6 f9 ce 3d df 04 8d 3d
       0.4259065 -1.7413639 0.10106258 0.06885695
000180 8c ef 08 bf f4 7d fa bd 64 41 84 bf 6f 58 d4 bf
       -0.5349052 -0.12231055 -1.0332456 -1.6589488
000190 c6 e2 28 3c 21 a2 6b be e9 bc 07 3e 98 c2 bf be
       0.010307973 -0.23011066 0.13255657 -0.3745315
0001a0 79 99 d0 be 69 7f d1 be 61 cc a8 3e 6f 15 08 be
       -0.4074209 -0.4091752 0.3296843 -0.13289426
0001b0 25 e4 c7 3d a9 31 3c bf 14 45 9f bc a8 b8 2e 3e
       0.09760312 -0.73513275 -0.019442119 0.17062628
0001c0 92 6e c5 be b2 2b 24 3e 60 1e af bb d7 fc 67 be
       -0.3856092 0.16032293 -0.005344197 -0.22655044
0001d0 b7 3b 4d 3e ab 6c 46 bf ab 43 6f be fc be 9c 3d
       0.2004231 -0.77509564 -0.23365657 0.07653615
0001e0 a3 ef 3f 3d b1 78 16 be 39 3e 0e bf 9e 8e 1d 3e
       0.046859395 -0.14694478 -0.55563694 0.15386435
0001f0 ac 5f 47 3d a9 d9 35 be 98 9d 24 bf 36 e5 f8 be
       0.048675224 -0.17758812 -0.6430297 -0.48612374
000200 cc 9d 63 bd 91 d7 84 bd d8 9a fe bd fd 81 54 3c
       -0.05557041 -0.064864285 -0.12431878 0.012970445
000210 67 aa 16 be 4c e2 be 3d 44 31 46 3d 68 1d 19 3e
       -0.14713441 0.093205065 0.048386827 0.14952624
000220 c8 85 cf 3d f5 54 1b 3d 00 f3 d1 bb ba ba 47 3d
       0.101329386 0.03792282 -0.0064071417 0.04876206
000230 fa 66 d7 bd 8b 68 b5 3d 37 3b 3a bd 17 bc ac 3d
       -0.10517688 0.088578306 -0.045466628 0.08434313
000240 1c ce 43 bd 77 0e f2 3c 28 1b c5 3d 57 e9 9a bd
       -0.047803983 0.029547913 0.0962432 -0.07564037
000250 bb c5 2c bd 48 52 d3 3e ec 10 24 3e b8 77 af 3d
       -0.042180758 0.41273713 0.1602208 0.085677564
000260 14 97 2b be 34 98 71 be 86 1f 8e 3d 78 a6 0b ba
       -0.1675685 -0.23593217 0.06939606 -0.0005327235
000270 fe 2f 8c 3d f4 20 3d be ab 5e 79 3d 66 ea 75 3e
       0.06845091 -0.18469602 0.060881298 0.24015197
000280 a4 cd b2 3d 7e f0 61 be 82 70 a9 3d 3d bf 5a bd
       0.08730629 -0.22064397 0.08273412 -0.053405035
000290 92 45 a5 be 38 4f 0d be 84 6f 15 bd 73 f9 3e be
       -0.3227964 -0.13799751 -0.036483303 -0.18649845
0002a0 19 64 51 bd 7c a0 75 be 56 28 03 bd ae a4 01 be
       -0.05112085 -0.23987001 -0.03202089 -0.12660477
0002b0 2d eb 98 bd f5 73 ca bd 7b 93 7b be 5c b7 db bc
       -0.07466731 -0.09885398 -0.24567978 -0.026820831
0002c0 75 93 30 bd 7c 30 16 bd 8b 8d ff bc 6e 92 86 be
       -0.043109376 -0.036667332 -0.031195423 -0.26283592
0002d0 9d 09 00 3e cc 01 80 bd 3b aa 98 bc 20 1e 44 be
       0.12503667 -0.06250343 -0.01863586 -0.19152117
0002e0 32 d0 48 bd 24 9e 20 bd 97 34 e8 3d 6b ce 4b 3d
       -0.049026676 -0.039213315 0.11338156 0.049757402
0002f0 58 1e ee bc 4d 79 62 3c da bf af 3c 21 a9 d4 ba
       -0.029067203 0.013822866 0.021453787 -0.0016224721
000300 aa dc dc 3d 7b 98 b6 3b 2c d2 17 be d3 de d0 3c
       0.10784276 0.0055723763 -0.14826268 0.025496876
000310 97 cb 06 3c a0 61 e7 3b 48 50 1b 3d c5 03 4a bd
       0.008227251 0.0070611984 0.03791836 -0.04932
000320 96 3c 19 be e1 5f b0 bd 08 1d 75 bd 3f 9b 77 3d
       -0.14964518 -0.086120375 -0.05984214 0.06045079
000330 47 46 e5 3c 68 8b b8 bd b1 a5 2a be 93 34 0d bb
       0.027987612 -0.09010965 -0.16664769 -0.002154623
000340 66 16 87 3b eb 8c 7f 3d 58 fd ae bd db cc 51 bb
       0.004122543 0.06239025 -0.08544415 -0.0032012973
000350 23 a7 8e bc aa 1f 64 bd bd 63 7a bd 9d 40 0d 3d
       -0.017413681 -0.05569426 -0.061130274 0.03448545
000360 f8 07 9c bd 80 ee e5 bb d0 09 d2 3c eb a9 8d bd
       -0.076187074 -0.007016957 0.025639445 -0.06917175
000370 c0 bd 9c bd 80 9a 02 3b 81 24 06 be 79 a6 64 bd
       -0.076533794 0.0019928515 -0.13099863 -0.055822823
000380 26 a2 31 3d 06 d6 d8 3c 4b aa 23 bd f7 92 15 bd
       0.043367527 0.026469242 -0.039957326 -0.03651711
000390 1a 6b 90 3d db da 64 bd e2 27 c7 3d 66 e6 66 3d
       0.07051678 -0.05587278 0.09724404 0.05637207
0003a0 60 0a 2c be 89 96 fd bd d5 c1 b1 bd ed f1 27 be
       -0.16800833 -0.12382228 -0.08679549 -0.16400881
0003b0 b9 9e 9d bd e4 84 f9 3d 07 e2 6b 3d c0 22 55 3d
       -0.076962896 0.1218355 0.057588603 0.052035093
0003c0 dd 6e f7 bd 3f 5e f6 bd 79 f5 84 bd fb d4 da bd
       -0.12081692 -0.12029695 -0.06492133 -0.10685154
0003d0 07 bd 25 be 80 c6 21 3d d1 1e a7 bd 86 c2 2e 3d
       -0.1618539 0.039495945 -0.08160175 0.04266598
0003e0 f8 f2 92 3d 3f 71 97 bd 0c e1 ac 3d 0c 01 ff bd
       0.07175249 -0.07394647 0.08441362 -0.124513716
0003f0 4c 7b d3 bd fa 0c 85 bc 77 db df 3c 5c 92 f8 bd
       -0.103262514 -0.01624154 0.027326329 -0.12137291

fc2.bias f4 [64]
000000 96 b4 44 bd 6a f7 9b bd 0b 48 3e be 3e 1c a1 bc
       -0.048023783 -0.0761555 -0.1858217 -0.019666787
000010 e3 2e 21 3c 48 9d bf bd 13 2a 8c 3d c2 de 13 3f
       0.009837839 -0.09356171 0.068439625 0.57761776
000020 58 b2 c3 bd e5 7f d5 bd 79 9f 0b 3e 6f 2e a9 be
       -0.09555501 -0.104247846 0.13635053 -0.3304324
000030 bf 12 99 3d 0e e3 82 3c 85 d7 22 3f 9c 8b 0f 3f
       0.07474279 0.015977409 0.63610107 0.560724
000040 19 c0 17 3f ef e7 09 3f 3f a8 90 3d 87 db 08 3f
       0.5927749 0.5386953 0.070633404 0.5345997
000050 4a d0 04 3f 7e 5c bf 3d fd 99 f4 3e eb 39 32 3f
       0.51880324 0.09343813 0.47773734 0.69619626
000060 a3 90 0c 3d 88 2b b8 3e 7b d5 fe bd 96 63 0c be
       0.034317624 0.35970712 -0.12443062 -0.13709864
000070 f4 5c fa 3e 3d 89 d6 bd 01 be e8 3e 69 ff 01 3f
       0.48899043 -0.10475395 0.4545746 0.5078035
000080 89 85 27 3f eb 75 22 3f a2 61 04 3f 70 e0 a6 3c
       0.65438133 0.6346118 0.51711476 0.020370692
000090 7d f1 1d bd 21 75 41 3f 82 09 17 3f c9 27 b6 3d
       -0.03856038 0.7556935 0.5899888 0.08894307
0000a0 60 9d 1b 3f 5e 61 11 be 39 9e 19 3f b2 d0 0f 3f
       0.6078701 -0.14197299 0.60007054 0.5617782
0000b0 a5 8b 0d 3f ba 48 c3 3e 4b fa 4a bc 39 a6 c7 3e
       0.55291206 0.38141423 -0.012388776 0.38994005
0000c0 8d ee 2a 3f ad 0f 82 bd b6 9b f1 3e b1 45 2e 3e
       0.6677025 -0.06350646 0.4718911 0.17018773
0000d0 12 d0 41 bd 78 4a 2e 3d d3 28 dd 3e f0 9e 20 3f
       -0.047317572 0.042551488 0.4319521 0.6274252
0000e0 bc 76 29 3f 82 81 8d bd b6 5c a6 bd 6e 32 b5 3d
       0.661968 -0.06909467 -0.08123152 0.08847509
0000f0 f0 7b 43 bd 98 49 5b 3d 96 39 5b be 2f 13 08 be
       -0.047725618 0.05353698 -0.21408686 -0.13288568

fc3.weight f4 [3, 64]
000000 34 31 db bc f8 3b 6d 3d 33 22 3c 3d cb 1f ae 3d
       -0.02675686 0.05791852 0.045931052 0.08502158
000010 2a 31 9e 3d 91 ad a5 bc eb 80 9f 3d a0 30 6f 3e
       0.07724221 -0.020224364 0.07788261 0.23358393
000020 30 50 18 bd 92 a1 af be 9d 94 81 bc 5a 18 e4 be
       -0.037185848 -0.34302956 -0.015817935 -0.4454983
000030 e7 a6 75 bd f2 f2 2e bd ef f4 a8 3e 52 83 a1 3e
       -0.059973624 -0.04271216 0.3299937 0.31545502
000040 86 3d 7f 3e ec e6 62 3e 13 6f d6 3c 0f 4b c2 3e
       0.24925813 0.22158402 0.026176011 0.3794789
000050 52 21 ad 3e 23 27 94 3e a8 6b c8 3d 37 63 df 3e
       0.33814484 0.2893611 0.09786159 0.43630382
000060 2b 69 c9 bc f6 5c c8 bf 97 eb e7 bc 73 6a 71 bd
       -0.02458628 -1.565337 -0.02831058 -0.05893941
000070 b8 dc bb 3e 58 ef 46 bd 9e fc 38 3f c4 06 fb 3e
       0.36691833 -0.0485681 0.72260463 0.490286
000080 02 61 0a 3f 45 ca 95 3e 63 ef 78 3e 3c 77 b9 bd
       0.5405427 0.29255882 0.24310069 -0.09055945
000090 58 ea 06 3e 7c d8 ff 3e f0 15 b6 3e 10 a6 5b bc
       0.13175333 0.49969852 0.35563612 -0.013406292
0000a0 4e 3f c2 3e f9 15 a7 3d 80 96 7e 3e 6e b6 49 3e
       0.37938923 0.08158488 0.24862099 0.19698498
0000b0 52 d4 24 3f db e8 3e 3e 00 23 22 3d 18 d5 d3 3d
       0.64386475 0.18643515 0.03958416 0.10343379
0000c0 7a 82 aa 3e 6e 55 52 bd 03 80 ae 3e 94 55 81 3e
       0.3330267 -0.051351003 0.3408204 0.25260603
0000d0 ba ec fd 3c f9 6d e4 bc cb 2f 41 3e fa 7c 94 3e
       0.03099667 -0.02788447 0.18865888 0.290016
0000e0 a1 6c c1 3e e7 f5 98 be 6b 67 08 3e f0 b1 91 bd
       0.3777819 -0.2987511 0.13320701 -0.07114017
0000f0 e4 76 41 3d 33 4a 58 3c 67 c8 99 bc ea fe fb bc
       0.047232524 0.013201284 -0.018772317 -0.030761201
000100 77 c0 b2 bd 51 48 03 3e d6 92 0f 3e bc 36 29 bd
       -0.08728116 0.12820555 0.14020857 -0.041311964
000110 fa b5 8c 3d 0b e3 1c bd 5b 5b 03 be 48 05 9f 3e
       0.06870647 -0.038302463 -0.12827818 0.31058717
000120 0e 72 a7 bd 7c 4a 35 3e c6 32 d7 3b 73 4d 64 3e
       -0.08176051 0.17704195 0.006567332 0.2229517
000130 01 aa 9b bd 00 62 ed bd 72 7e b8 3e a2 55 c4 3e
       -0.07600785 -0.11590958 0.3603397 0.38346583
000140 33 94 82 3e d5 91 cc 3e c0 d3 19 bd be c2 93 3e
       0.25503692 0.3995501 -0.037555456 0.28859514
000150 42 96 c9 3e 1b 2d 3b bf ef a8 a5 3e f4 e6 9a 3e
       0.3937245 -0.731157 0.3235545 0.30254328
000160 52 f7 33 3d 97 09 3d bf 02 69 28 bd 95 43 85 3d
       0.043937035 -0.7384276 -0.04111577 0.06507031
000170 6d d0 ca 3d e8 fd ca bd ec 68 ba be 01 15 07 3e
       0.09903035 -0.0991171 -0.36408174 0.13191606
000180 7b 00 be 3e 1c 6d a6 3e 35 e9 c1 3e 9c 57 f4 3d
       0.37109742 0.3250512 0.37873235 0.11930773
000190 5b 57 8c bd c6 68 a9 3e da 90 c0 3e 88 50 ad bd
       -0.06852599 0.33087748 0.37610513 -0.08462626
0001a0 94 81 9b 3e 34 6f 84 3d fe c9 a3 3e 2f f4 c0 3d
       0.30372298 0.06466523 0.31990045 0.09421574
0001b0 95 f2 0f 3e 11 46 b5 3e 69 eb 02 bd 66 de 9f 3e
       0.14057381 0.3540502 -0.031962786 0.31224364
0001c0 1a a7 fc 3e 70 27 6a bd 68 24 b3 3e da f9 84 bf
       0.49346238 -0.057166517 0.34988713 -1.0388749
0001d0 6d 6b c2 be b6 36 e5 3c c8 95 a4 3e 8c f6 ae 3e
       -0.37972584 0.02798019 0.32145524 0.34172475
0001e0 08 d3 df 3e 69 9a 96 3e ef 34 f3 bd 70 66 ef bd
       0.43715692 0.2941468 -0.11875331 -0.1168946
0001f0 26 5a e4 bd 5f 30 07 ba 69 c5 a8 3a 2e 7b 19 bd
       -0.11150007 -0.0005157049 0.0012876216 -0.03747099
000200 86 56 53 bd 89 5f c2 3e 2b eb 11 be 38 e9 12 3c
       -0.051596187 0.37963513 -0.14249866 0.0089667365
000210 0c d4 64 bd 6e 77 a6 bd 03 57 ed 3c 84 26 89 3e
       -0.055866286 -0.08128248 0.028972154 0.26787198
000220 64 dc 3e 3d 12 6f ae be 57 8c 07 3f 63 d4 40 3f
       0.0465969 -0.34069115 0.52948517 0.75324076
000230 2a 22 93 bd 2c ca 6c bd 83 92 c7 3e e2 d8 ab 3e
       -0.07184251 -0.057809994 0.38978967 0.33563906
000240 39 21 b7 3e 8c e4 84 3e 3c 18 15 bd c4 53 af 3e
       0.35767534 0.25955617 -0.036400065 0.34243596
000250 d8 8b 41 3e 60 40 5f 3f 2f 70 5f 3e 6f ee c9 3e
       0.18901002 0.87207603 0.21820138 0.39439723
000260 09 ce b0 bd fb f9 93 bf f5 3a 8e 3d 35 56 9d 3d
       -0.08633048 -1.1560663 0.06944839 0.07682458
000270 03 e7 cd 3e 9b 19 dc bc 70 33 e1 bd 74 92 f8 3e
       0.4021531 -0.026867678 -0.10996139 0.48549235
000280 4e 04 93 3e d2 49 a0 3e 36 4f 6f 3e d8 be 3c bd
       0.28714222 0.3130632 0.2337006 -0.04608044
000290 b4 40 5e 3d 1b 36 9b 3e b9 93 9e 3e 02 5c a9 bd
       0.054260924 0.30314717 0.30972078 -0.08269502
0002a0 b2 ad 98 3e 06 1f cc bb f1 a5 b3 3e 48 23 d8 3e
       0.2982002 -0.006229284 0.3508754 0.42214417
0002b0 b2 02 43 3e 1e 15 c8 3e dd 2e b7 3d 28 9d 81 3e
       0.19043997 0.3907861 0.08944485 0.25315213
0002c0 40 29 d1 3e 4b 13 95 3d 50 a9 c3 3e 98 31 86 bf
       0.40851784 0.072790705 0.38215113 -1.0483885
0002d0 e9 c9 af 3e 3f 50 fd bd 01 7c 28 3e 93 97 67 3e
       0.34333733 -0.12368821 0.16453554 0.22616415
0002e0 d6 cd 85 3e 65 59 86 3d d9 59 f3 bd 8e 41 83 bd
       0.26133603 0.065600194 -0.118823715 -0.06408988
0002f0 9e 72 a4 bd 7f 9a ab 3d 01 bd dd 3e 4a 03 b0 3d
       -0.08029674 0.08379077 0.4330826 0.08594377

fc3.bias f4 [3]
000000 ee fe 1c 3f 33 73 0f 3f de 5a d2 3e
       0.6132649 0.56035155 0.4108495
