code/Notebooks/q_network_without_traffic_lights.pth (torch, 20866 bytes, 6 tensors)

fc1.weight f4 [64, 2]
-1.2296199 0.90002006 0.2323634 -0.016597895 0.22613983 -0.36761856 -0.6955277 -1.255525
0.3224328 -0.19036736 0.40590435 -0.0155869275 -1.044573 0.78502816 0.7129149 -0.36167723
-0.9270623 0.5620981 0.03463747 -0.32283172 -0.614899 0.59534013 0.03933039 -0.005593658
-0.3732722 -0.55549914 0.49689752 -1.7126179 -0.0260115 0.78447974 -0.22033705 0.6990186
0.12389834 -0.19459702 0.68260074 0.19104166 -0.5662373 -1.0723585 -0.93479 0.64819163
0.42592096 0.074670315 0.6018512 -0.02943131 -0.48269993 -0.17055893 0.63703805 0.8055455
0.04779503 -0.007613491 0.28661388 0.5049462 -0.29543123 -0.34257874 -0.08618172 0.6828984
-0.5635935 0.18657705 0.07868405 0.69366354 -0.1274866 -0.17893581 0.035174664 -0.5224476
0.43279123 -0.49050817 0.73038936 0.48866493 0.76369727 0.5811466 0.43832824 0.4995378
-0.25886357 0.4932713 0.168662 0.41669568 -0.4560048 -0.22699761 0.42755297 -0.6100515
0.1379058 -0.33390674 -0.2241823 -0.5979135 -0.070931375 0.16228719 0.72220665 -0.7859876
-0.49082053 0.105186984 -0.91987026 0.5664038 0.06624508 -0.22004732 0.62375355 -0.44832823
-0.36824477 -0.67156416 0.38046372 -0.21274954 -0.29853946 0.58909476 0.4410442 -0.58388704
0.44477034 -0.38350725 -0.041662328 -0.6812238 -0.025815703 -0.6834778 0.67649144 -0.37968206
0.52254045 -0.48175454 -0.37129343 0.07344543 -0.12455186 -0.42781395 -0.14123087 0.5319017
0.23732062 -1.7032547 0.47333366 -0.22438137 0.21476604 0.5524168 0.22235197 -0.38495344
00000000: 2f64 9dbf b767 663f acf0 6d3e 4ff8 87bc
00000010: 3391 673e 8038 bcbe 1a0e 32bf 0bb5 a0bf
00000020: e915 a53e a9ef 42be b2d2 cf3e 5060 7fbc
00000030: 91b4 85bf 9bf7 483f 9781 363f c22d b9be
00000040: f453 6dbf a9e5 0f3f 05e0 0d3d 334a a5be
00000050: 056a 1dbf 3668 183f e718 213d 014b b7bb
00000060: 891d bfbe 3135 0ebf 5a69 fe3e 1037 dbbf
00000070: 1216 d5bc aad3 483f 09a0 61be e2f2 323f
00000080: 6abe fd3d 7144 47be ecbe 2e3f 6da0 433e
00000090: edf4 10bf 0b43 89bf 664e 6fbf e3ef 253f
000000a0: 5012 da3e c0ec 983d ec12 1a3f ee19 f1bc
000000b0: 7224 f7be 00a7 2ebe ed14 233f 3b38 4e3f
000000c0: b9c4 433d 977a f9bb 0ebf 923e 2744 013f
000000d0: c342 97be 7b66 afbe 0b80 b0bd 6ed2 2e3f
000000e0: aa47 10bf 0e0e 3f3e 1a25 a13d ef93 313f
000000f0: d98b 02be f33a 37be 4f13 103d 20bf 05bf
00000100: d096 dd3e e323 fbbe ccfa 3a3f 4a32 fa3e
00000110: aa81 433f 06c6 143f 8f6c e03e 6bc3 ff3e
00000120: c489 84be 0e8e fc3e bbb5 2c3e 2359 d53e
00000130: 7679 e9be 1072 68be 39e8 da3e 562c 1cbf
00000140: 2e37 0d3e d3f5 aabe 0b90 65be dc10 19bf
00000150: 7844 91bd 9d2e 263e 89e2 383f 7c36 49bf
00000160: d44c fbbe 466c d73d 9e7c 6bbf d7ff 103f
00000170: 80ab 873d 1654 61be 50ae 1f3f 478b e5be
00000180: 948a bcbe a1eb 2bbf 24cc c23e 04db 59be
00000190: 2ada 98be eace 163f 8cd0 e13e 9f79 15bf
000001a0: f0b8 e33e 105b c4be 1ea6 2abd af64 2ebf
000001b0: 747b d3bc 67f8 2ebf 8b2e 2d3f b065 c2be
000001c0: 36c5 053f 88a8 f6be 2c1a bebe 8f6a 963d
000001d0: 0c15 ffbd 6e0a dbbe d39e 10be b62a 083f
000001e0: 2d04 733e 4004 dabf ca58 f23e 3bc4 65be
000001f0: a1eb 5b3e 306b 0d3f 3cb0 633e 9e18 c5be

fc1.bias f4 [64]
0.22174527 0.47450203 0.21286999 1.1873553 0.7226147 0.08261063 0.17631668 -0.38573393
0.22773921 0.8551583 -0.6462152 -0.20245586 -0.39360064 0.25419337 0.71492064 0.4938498
-0.50525504 -0.39819098 0.98634994 0.19443843 -0.07944484 -0.6862869 -0.16954927 0.23325716
-0.5691643 0.6281164 1.1707454 0.6336544 1.6714085 0.7785807 0.67277896 -0.14749703
-0.18567106 0.2279181 -0.6562987 0.3270964 0.7299613 0.552142 -0.10790663 0.18175691
0.6578896 -0.1468746 -0.6320496 -0.20750064 -0.57023025 0.21190841 -0.2897988 0.1466022
-0.455797 -0.35187662 0.82210594 0.6523984 -0.48333806 -0.34276125 -0.6097989 0.60805464
-0.52731055 -0.27456522 -0.043910693 0.16440478 1.0349473 0.21218845 0.65966904 0.3080048
00000000: 3111 633e eef1 f23e 97fa 593e 42fb 973f
00000010: 47fd 383f c32f a93d 5c8c 343e eb7e c5be
00000020: 7834 693e a8eb 5a3f 5c6e 25bf 9750 4fbe
00000030: 0686 c9be a225 823e 0a05 373f e2d9 fc3e
00000040: 6558 01bf b0df cbbe 6e81 7c3f de1a 473e
00000050: fab3 a2bd 80b0 2fbf 539e 2dbe f7da 6e3e
00000060: c0b4 11bf 3dcc 203f fcda 953f 2d37 223f
00000070: b7f0 d53f 1151 473f 3e3b 2c3f 7609 17be
00000080: 8e20 3ebe 5d63 693e 3103 28bf 2e79 a73e
00000090: bede 3a3f 2e59 0d3f 27fe dcbd 7c1e 3a3e
000000a0: 746b 283f 4c66 16be 01ce 21bf 0c7b 54be
000000b0: 9cfa 11bf 85fe 583e 8260 94be e31e 163e
000000c0: 395e e9be 2c29 b4be 8975 523f 9503 273f
000000d0: 1678 f7be 677e afbe c81b 1cbf 78a9 1b3f
000000e0: d3fd 06bf d093 8cbe b3db 33bd ba59 283e
000000f0: 2779 843f ee47 593e 12e0 283f ceb2 9d3e

fc2.weight f4 [64, 64]
-0.08647354 0.0031299514 -0.056128092 -0.0069271624 -0.081547275 0.039073136 -0.114375085 0.10099559
-0.060382247 -0.122726515 0.12311511 0.035393614 0.049890056 0.077283435 -0.048422452 -0.084460385
-0.03677931 0.08680674 0.08431585 0.105964676 0.055542674 0.043440767 -0.040701553 0.032292783
-0.0714706 -0.015704954 -0.1156959 0.00013706129 -0.1092605 -0.119517475 0.06180602 0.07043405
-0.11006796 -0.1127938 0.07837682 0.053004127 0.0057105124 -0.057466082 0.060219944 -0.0169343
-0.07338317 0.025256664 0.07985389 -0.12574111 -0.0075955987 0.039239094 -0.080505624 -0.09296831
0.012359068 0.009111455 0.035540413 0.020733232 0.00503523 -0.056213275 -0.12468253 -0.04528027
-0.10124461 -0.123308405 -0.04137148 -0.08377643 0.015471518 0.048993737 0.05609381 -0.12618814
-0.044054657 0.04270532 0.10713956 0.10597941 -0.11308064 0.0984553 0.045974612 0.029940559
0.12059824 0.0047515845 0.010099992 0.112921074 0.09973177 0.066566125 -0.012458854 0.060450774
0.040862754 -0.004654196 -0.10422552 0.034520328 0.07866595 -0.111258134 -0.008304745 -0.1136853
-0.050850227 -0.06314174 0.07892389 -0.024368675 -0.12303616 0.016697412 0.02050909 -0.034280837
-0.03482291 -0.09987838 0.097917356 0.049790017 0.012366932 0.021147847 -0.095442116 0.11246718
-0.12131674 0.040566638 -0.07489139 -0.08258043 -0.10336545 -0.034603775 -0.120837614 -0.013537483
-0.0055083036 0.09207403 -0.013789348 -0.111106 0.011214972 0.046031848 -0.06560063 -0.018109413
-0.06440152 -0.10962942 -0.104704276 -0.04623266 -0.119259596 -0.052847974 0.09677594 0.04681412
-0.4508483 0.07287782 0.031769376 0.4801092 0.28113684 0.12754679 -0.2837385 0.115379795
-0.38459945 0.009383933 -0.09468821 0.035908744 -0.019943967 -1.0432048 0.14172615 0.15710162
0.05331871 0.12985012 0.7191363 -0.42785367 0.13650101 0.104666635 -0.12045938 0.27925357
0.0034456253 0.112899445 -0.32091245 0.19157532 1.8613151 0.29157543 0.10011169 -0.123840764
0.08316498 0.36202607 0.21917559 0.12746185 0.28641683 0.21265836 0.09627536 0.17872916
0.103116624 0.10370408 0.076151535 0.26878005 -0.046758533 -0.32462978 0.03900232 0.12907769
-0.006123632 0.13040163 0.36643222 0.112135805 0.20649527 -0.03621337 -0.022032097 0.2951718
0.18986924 0.08343825 -0.006953731 -0.038620308 -1.1497486 0.1427063 0.24525346 -0.03044543
0.39240155 -0.26264864 -0.11198313 0.12836768 -0.2508596 -0.3363959 0.3390168 0.018040126
0.3728372 -0.05598436 -0.11067459 0.090171486 0.11457668 0.20446967 -0.12719256 -0.10706676
0.018508548 -0.27045837 -0.049039166 0.32372078 -0.35586444 0.045912694 -0.085852936 -0.2648471
-0.060762122 -0.096999146 0.12175523 -0.077368565 0.01709102 -0.10538596 -0.09720622 0.060227096
0.06799961 -0.30959916 -0.29225165 -0.10998357 0.014138065 -0.0952908 0.031970486 -0.11782868
-0.075206675 0.02094981 0.112530485 -0.12605876 0.06916131 0.32111937 -0.11306241 -0.34958363
0.032812998 -0.06180999 0.044245962 -0.32690227 -0.05717387 -0.04379466 -0.037595674 -0.3155069
-0.17120306 -0.08929309 0.03743446 -0.121435784 0.18706556 -0.2519987 -0.2275595 -0.2486333
00000000: 0a19 b1bd df1f 4d3b 92e6 65bd 40fd e2bb
00000010: 4202 a7bd 270b 203d 7c3d eabd c7d6 ce3d
00000020: 6053 77bd 0a58 fbbd c623 fc3d e5f8 103d
00000030: 8459 4c3d c746 9e3d 9f56 46bd 91f9 acbd
00000040: e7a5 16bd bbc7 b13d caad ac3d 0204 d93d
00000050: b780 633d f2ee 313d acb6 26bd 7045 043d
00000060: 2e5f 92bd ada7 80bc f9f1 ecbd 1cb8 0f39
00000070: f8c3 dfbd 94c5 f4bd 4f28 7d3d ba3f 903d
00000080: 506b e1bd 7000 e7bd 0784 a03d db1a 593d
00000090: 401f bb3b 8e61 6bbd 30a9 763d cdb9 8abc
000000a0: ea49 96bd 10e7 ce3c 708a a33d 47c2 00be
000000b0: 80e4 f8bb 2cb9 203d 22e0 a4bd 2b66 bebd
000000c0: b07d 4a3c 3648 153c d392 113d bdd8 a93c
000000d0: 92fe a43b e43f 66bd 8e59 ffbd ce77 39bd
000000e0: 5659 cfbd 1e89 fcbd 2475 29bd fa92 abbd
000000f0: 407c 7d3c a8ad 483d 9fc2 653d 7737 01be
00000100: a872 34bd c6eb 2e3d fc6b db3d bc0b d93d
00000110: d396 e7bd efa2 c93d e04f 3c3d e745 f53c
00000120: 36fc f63d 2eb3 9b3b 707a 253c 2a43 e73d
00000130: 2c40 cc3d d253 883d 3920 4cbc 3b9b 773d
00000140: b45f 273d 3a82 98bb 3074 d5bd 3065 0d3d
00000150: 9d1b a13d 4edb e3bd a010 08bc d7d3 e8bd
00000160: 5448 50bd 7550 81bd d9a2 a13d d1a0 c7bc
00000170: 62fa fbbd 03c9 883c ae02 a83c 106a 0cbd
00000180: 78a2 0ebd 098d ccbd e588 c83d 9ef0 4b3d
00000190: ac9e 4a3c 403e ad3c 2877 c3bd 3155 e63d
000001a0: e974 f8bd 3429 263d a860 99bd ee1f a9bd
000001b0: 44b1 d3bd b0bc 0dbd b679 f7bd 52cc 5dbc
000001c0: 007f b4bb 4f91 bc3d b8ec 61bc 8b8b e3bd
000001d0: 00bf 373c e48b 3c3d a059 86bd 315a 94bc
000001e0: f2e4 83bd 6485 e0bd 326f d6bd 755e 3dbd
000001f0: 603e f4bd 1e77 58bd 7732 c63d 2ac0 3f3d
00000200: 97d5 e6be f740 953d 9b20 023d e0d0 f53e
00000210: 2bf1 8f3e a09b 023e 2c46 91be 3e4c ec3d
00000220: 38ea c4be 11bf 193c e4eb c1bd 0c15 133d
00000230: 8861 a3bc bc87 85bf a920 113e 3fdf 203e
00000240: b864 5a3d 6ef7 043e 5119 383f a30f dbbe
00000250: ecc6 0b3e 765b d63d 68b3 f6bd 53fa 8e3e
00000260: 00d0 613b d337 e73d a34e a4be 522c 443e
00000270: 933f ee3f 6049 953e 5c07 cd3d 3aa0 fdbd
00000280: 6752 aa3d 7b5b b93e 916f 603e 5c85 023e
00000290: 3aa5 923e 1dc3 593e 042c c53d c704 373e
000002a0: cf2e d33d ce62 d43d 56f5 9b3d 8a9d 893e
000002b0: e085 3fbd e035 a6be e6c0 1f3d f12c 043e
000002c0: c0a8 c8bb 0188 053e 019d bb3e 75a7 e53d
000002d0: 7f73 533e 7854 14bd a87c b4bc c220 973e
000002e0: 156d 423e ace1 aa3d 20dc e3bb 5430 1ebd
000002f0: f62a 93bf 9a21 123e b923 7b3e b268 f9bc
00000300: dbe8 c83e e279 86be 6957 e5bd d172 033e
00000310: ab70 80be 153c acbe 9c93 ad3e e3c8 933c
00000320: 84e4 be3e db4f 65bd 5ca9 e2bd d4ab b83d
00000330: 2ea7 ea3d 7f60 513e c43e 02be d145 dbbd
00000340: 3d9f 973c 8579 8abe 4bdd 48bd bbbe a53e
00000350: dd33 b6be f30e 3c3d aad3 afbd 0a9a 87be
00000360: b4e1 78bd 7da7 c6bd ce5a f93d 6973 9ebd
00000370: 7702 8c3c 98d4 d7bd 0e14 c7bd b0b0 763d
00000380: 6143 8b3d c883 9ebe 02a2 95be 113f e1bd
00000390: 58a3 673c d327 c3bd 7cf3 023d 2a50 f1bd
000003a0: f505 9abd f09e ab3c 6276 e63d 8c15 01be
000003b0: 72a4 8d3d c269 a43e 448d e7bd a0fc b2be
000003c0: ec66 063d 792c 7dbd 413b 353d bc5f a7be
000003d0: 262f 6abd 0862 33bd ecfd 19bd 1f8a a1be
000003e0: db4f 2fbe 4cdf b6bd e054 193d 53b3 f8bd
000003f0: 1d8e 3f3e f905 81be 5c05 69be ba99 7ebe

fc2.bias f4 [64]
0.022587208 0.021608248 0.35091108 0.032144003 0.22474787 0.32885736 0.36354065 0.044428453
0.35347104 0.17327338 -0.14827277 0.23367338 0.24720836 0.2832783 -0.10584675 0.07539962
0.39934382 0.07772436 -0.09035872 0.14484721 0.1968659 -0.10051409 0.01573272 0.06760254
0.06121583 -0.001941623 -0.0021203684 0.17317091 0.0015408546 0.39425236 0.22178598 0.22265081
0.7985943 0.5900399 0.20480728 0.037802003 0.18741938 0.6650298 -0.10854008 0.31498834
0.24263892 0.11343695 0.23600557 -0.011956942 -0.07160828 0.2682083 0.25277588 0.60387826
0.23859085 0.19559704 0.37909627 -0.13864146 0.19712372 0.17342868 0.18043105 0.09939133
-0.01936318 -0.035715517 0.19709042 -0.14318344 -0.018978566 0.094228365 0.307056 0.016154952
00000000: cf08 b93c c803 b13c 9eaa b33e 6ea9 033d
00000010: 4e24 663e fe5f a83e 0022 ba3e 9cfa 353d
00000020: 28fa b43e 946e 313e d1d4 17be 1348 6f3e
00000030: 3024 7d3e da09 913e 2ec6 d8bd 1e6b 9a3d
00000040: cb76 cc3e f32d 9f3d fe0d b9bd d452 143e
00000050: 3797 493e 55da cdbd e8e1 803c 3373 8a3d
00000060: 73bd 7a3d 0f7e feba e1f5 0abb b753 313e
00000070: 80f6 c93a 72db c93e dd1b 633e 93fe 633e
00000080: ad70 4c3f db0c 173f 00b9 513e 46d6 1a3d
00000090: deea 3f3e 653f 2a3f 434a debd 2746 a13e
000000a0: 5676 783e a251 e83d 72ab 713e 0de7 43bc
000000b0: 5da7 92bd 9952 893e d76b 813e c497 1a3f
000000c0: 2951 743e 974a 483e e818 c23e 07f8 0dbe
000000d0: cdda 493e 4a97 313e ebc2 383e ae8d cb3d
000000e0: 889f 9ebc 6f4a 12bd 12d2 493e ae9e 12be
000000f0: f078 9bbc cdfa c03d 7236 9d3e 6457 843c

fc3.weight f4 [2, 64]
-0.091869034 -0.10652176 0.29090673 -0.22287886 0.28412834 0.26710618 0.23739778 -0.027073829
-0.21653165 0.25949612 0.07617553 0.29531404 -0.35220438 0.331131 0.105743036 -0.035808217
-0.42930278 -0.04694654 0.03790562 0.28164977 0.28288394 -0.0069886455 -0.064982444 -0.051476844
-0.016870147 0.079194784 -0.0010664347 -0.16857241 -0.09249407 0.31353503 0.21668848 0.33075464
1.408176 0.13770846 0.25233427 -0.07929723 0.30081743 1.3601233 -0.0533859 -0.6204841
0.27618855 0.15203592 0.26649573 -0.036975138 0.07580972 0.3062389 0.26783884 0.41268325
0.31854463 0.2249675 0.37359858 -0.0053133164 0.28834713 0.31100664 0.383658 -0.10197857
-0.017342588 0.10241514 0.20477423 -0.08425769 -0.0883341 -0.102077365 0.3284257 -0.033370886
-0.06864574 -0.0100480765 0.25735906 0.17207104 0.2132557 0.20654857 0.19476701 -0.06909553
0.3515183 0.30850992 -0.07748078 0.21511953 -0.15557063 0.28297466 -0.1037087 0.06987642
-0.18546253 0.06297033 -0.03376527 0.32922003 0.24180174 -0.009904193 -0.08896552 0.10748954
0.074028894 -0.06442414 -0.03314408 0.6887923 -0.09367281 0.20446773 0.24912064 0.21560949
0.86451244 1.2336874 0.21276857 -0.05091624 0.17999893 0.94850856 0.10553171 -0.10791871
0.18079467 0.23946252 0.15280765 -0.0038630976 -0.049647793 0.31342694 0.16883211 0.61695653
0.18812256 0.3027047 0.27725226 -0.036184918 0.18299976 0.29451898 0.3132787 0.0888627
-0.08864706 0.05540766 0.20764561 -0.01574881 -0.007210389 0.07970844 0.20745677 0.0077771246
00000000: d525 bcbd 1528 dabd baf1 943e 5b3a 64be
00000010: 4579 913e 24c2 883e 6718 733e efc9 ddbc
00000020: 79ba 5dbe addc 843e eb01 9c3d 6733 973e
00000030: 2254 b4be 018a a93e ce8f d83d a3ab 12bd
00000040: 93cd dbbe 044b 40bd ec42 1b3d 6634 903e
00000050: 2ad6 903e 0201 e5bb 8415 85bd 62d9 52bd
00000060: 4333 8abc e030 a23d 9cc7 8bba 3f9e 2cbe
00000070: 886d bdbd aa87 a03e 96e3 5d3e ac58 a93e
00000080: 1c3f b43f 7203 0d3e f531 813e 9666 a2bd
00000090: be04 9a3e 8518 ae3f 2cab 5abd 0cd8 1ebf
000000a0: 9668 8d3e 4eaf 1b3e 2172 883e 3e73 17bd
000000b0: 2042 9b3d 58cb 9c3e 2c22 893e 384b d33e
000000c0: 4818 a33e e15d 663e 5048 bf3e 541b aebb
000000d0: 3ca2 933e 433c 9f3e d26e c43e 24da d0bd
000000e0: 0b12 8ebc 07bf d13d 56b0 513e 4c8f acbd
000000f0: 82e8 b4bd f00d d1bd 6a27 a83e e9af 08bd
00000100: 2396 8cbd b0a0 24bc 91c4 833e 6433 303e
00000110: b45f 5a3e 7881 533e 0171 473e f581 8dbd
00000120: 35fa b33e 03f5 9d3e 3eae 9ebd 4b48 5c3e
00000130: e84d 1fbe 0ee2 903e 3a65 d4bd 5e1b 8f3d
00000140: e4e9 3dbe 97f6 803d 744d 0abd 878f a83e
00000150: e09a 773e 3245 22bc 8e33 b6bd 7a23 dc3d
00000160: 769c 973d cef0 83bd 16c2 07bd b154 303f
00000170: 88d7 bfbd fd5f 513e 7b19 7f3e bcc8 5c3e
00000180: b050 5d3f 78e9 9d3f 01e0 593e 8c8d 50bd
00000190: a451 383e 75d1 723f 0221 d83d 7c04 ddbd
000001a0: 3d22 393e aa35 753e 9c79 1c3e 062c 7dbb
000001b0: 7c5b 4bbd 7f79 a03e 53e2 2c3e ddf0 1d3f
000001c0: 33a3 403e 1cfc 9a3e 02f4 8d3e a336 14bd
000001d0: 4a64 3b3e 31cb 963e 1166 a03e a6fd b53d
000001e0: 978c b5bd 24f3 623d 0da1 543e a603 81bc
000001f0: 2045 ecbb 2e3e a33d 8c6f 543e 40d7 fe3b

fc3.bias f4 [2]
0.5815861 -0.04813279
00000000: d4e2 143f e326 45bd
